_________________________________________________________________
Layer (type)                 Output Shape              Param #   
=================================================================
input_6 (InputLayer)         [(None, 256, 256, 1)]     0         
_________________________________________________________________
conv1 (Conv2D)               (None, 125, 125, 32)      2080      
_________________________________________________________________
conv2 (Conv2D)               (None, 61, 61, 64)        51264     
_________________________________________________________________
conv3 (Conv2D)               (None, 30, 30, 128)       73856     
_________________________________________________________________
conv4 (Conv2D)               (None, 15, 15, 256)       131328    
_________________________________________________________________
conv2d_transpose_31 (Conv2DT (None, 32, 32, 128)       524416    
_________________________________________________________________
conv2d_transpose_32 (Conv2DT (None, 64, 64, 64)        32832     
_________________________________________________________________
conv2d_transpose_33 (Conv2DT (None, 128, 128, 64)      16448     
_________________________________________________________________
conv2d_transpose_34 (Conv2DT (None, 256, 256, 16)      1040      
_________________________________________________________________
conv2d_transpose_35 (Conv2DT (None, 256, 256, 8)       520       
_________________________________________________________________
conv2d_transpose_36 (Conv2DT (None, 256, 256, 1)       9         
=================================================================
Total params: 833,793
Trainable params: 833,793
Non-trainable params: 0
_________________________________________________________________
